data/pytorch_model_complete.pth (torch, 32500 bytes, 7 tensors)

weight f4 [64, 60]
0.0059955306 0.045154124 -0.03848372 0.05034285 -0.01382795 0.08468303 0.008825062 0.12349679
0.14111307 -0.07064817 0.12638228 0.0026326873 0.109236255 0.053778823 0.08951889 0.011821169
0.1777461 0.08927395 -0.048992142 -0.029963182 -0.09746443 -0.0036174976 -0.07187403 0.091191776
-0.03301784 -0.04574429 -0.04737815 -0.059251998 0.095257364 -0.013627391 0.25337234 -0.099556714
0.08467364 0.0070445123 -0.058993857 0.08672702 0.07684799 0.06730905 -0.0156109575 0.045833975
0.14042696 0.05851104 0.0629341 0.09883885 0.0290196 -0.06397476 0.18655863 0.09795035
0.060642812 -0.103761435 -0.16179438 -0.17848833 -0.19297442 -0.025091149 -0.026264086 0.09496836
0.052364975 -0.039183244 0.10991418 -0.11413303 0.021011956 -0.0844056 0.07094808 -0.017012147
-0.0047460427 -0.04952121 0.1337914 -0.10683195 -0.16720577 -0.16944322 -0.045129012 -0.10484177
0.048686057 -0.12264946 -0.16364852 -0.15112679 -0.14870891 0.03802298 0.059888825 0.12718545
-0.08603348 -0.1631706 0.031621687 -0.073837355 0.061697382 -0.018300055 0.08771469 -0.10034714
-0.1102371 -0.009424286 0.06297252 -0.018902022 0.08560717 0.11958434 -0.0087721525 -0.0054226536
0.11182485 -0.034159284 -0.0445765 -0.10600283 -0.07230723 0.06102602 0.061784573 -0.0882228
-0.03778587 -0.1267067 -0.12325395 -0.12388359 -0.107790485 0.060437646 0.08598736 -0.052762676
0.09522058 -0.09015022 -0.025746083 -0.03330367 0.07785682 -0.03822559 -0.011606783 -0.04836886
-0.0014090093 -0.13419703 -0.042090744 -0.12907769 -0.16270626 -0.13961364 -0.062029317 -0.12873366
0.05134726 -0.09302628 0.014055507 -0.075713456 -0.17173003 0.032716542 -0.07199693 -0.0729028
-0.0881716 -0.11453666 -0.011329363 -0.073021464 0.017129105 -0.15686709 0.059299838 -0.1356763
-0.036527503 0.009934741 0.049389582 0.07410478 0.08297255 -0.10672813 0.08217571 -0.014431866
0.029772019 -0.094724886 0.17016257 -0.029853376 0.10621708 0.04331637 0.015505809 -0.085570745
0.13777788 0.09799355 0.05114089 -0.13481963 0.001590838 -0.09187525 -0.12523924 0.041930113
-0.03925729 -0.048448008 -0.113291174 -0.15580074 0.019884095 -0.014244649 -0.046994038 -0.047134154
-0.061680827 0.078338794 0.14407824 -0.11074971 0.043981597 0.04777496 -0.01942071 -0.0908147
0.049451537 0.05840299 -0.014117529 -0.0631523 -0.062493246 0.004946716 -0.00838385 0.016691811
0.13710304 0.11137648 -0.022321727 -0.044735853 -0.036436085 -0.033683598 0.014844375 0.024604637
-0.09681325 -0.016883876 0.13109437 0.052649938 0.008672141 -0.027949411 -0.052761853 -0.10270713
-9.4632924e-05 0.08902989 0.07236372 0.076305166 -0.08009656 -0.08751524 -0.07774634 0.036491983
-0.040274963 -0.07581963 0.055698093 -0.0683643 -0.075880304 0.089909755 -0.07960718 -0.02627405
-0.13538752 0.084844425 0.08486321 0.07563937 -0.07956561 -0.15398103 0.0021059972 0.19944294
0.11410578 0.13096535 0.008643079 0.056777615 0.03368441 -0.019997833 -0.056562502 -0.08620504
0.029806247 -0.08606388 0.079464234 -0.022191852 -0.019199535 -0.055448428 -0.012123162 0.008889184
-0.10368345 0.031128425 -0.15072954 -0.19720213 -0.05150078 -0.033773042 -0.016679347 -0.13400745
00000000: 2876 c43b 88f3 383d 1ba1 1dbd 4e34 4e3d
00000010: a08e 62bc 4c6e ad3d fe96 103c e3eb fc3d
00000020: f27f 103e fdaf 90bd 5b6a 013e 2a89 2c3b
00000030: 42b7 df3d 2f47 5c3d ae55 b73d 94ad 413c
00000040: 1303 363e 43d5 b63d fcab 48bd 5975 f5bc
00000050: 6e9b c7bd 8a13 6dbb b132 93bd c1c2 ba3d
00000060: b73d 07bd 5d5e 3bbd 970f 42bd 39b2 72bd
00000070: 4b16 c33d 6c45 5fbc 05ba 813e 64e4 cbbd
00000080: 6069 ad3d a7d5 e63b 8ba3 71bd f09d b13d
00000090: 7b62 9d3d 54d9 893d 1ac5 7fbc 68bc 3b3d
000000a0: 16cc 0f3e 46a9 6f3d 98e3 803d 066c ca3d
000000b0: 83ba ed3c 3305 83bd 3a09 3f3e 319a c83d
000000c0: 9964 783d e080 d4bd 6dad 25be a5c5 36be
000000d0: 169b 45be f48b cdbc c827 d7bc c67e c23d
000000e0: a87c 563d 9c7e 20bd b01a e13d 94be e9bd
000000f0: 4421 ac3c d8dc acbd 3a4d 913d 0f5d 8bbc
00000100: b184 9bbb c1d6 4abd 9d00 093e b6ca dabd
00000110: fd37 2bbe 8682 2dbe 33d9 38bd 48b7 d6bd
00000120: 086b 473d a42f fbbd 7a93 27be fbc0 1abe
00000130: 2647 18be fcbd 1b3d fc4d 753d e73c 023e
00000140: 5232 b0bd 3216 27be be85 013d 0a38 97bd
00000150: 65b6 7c3d ffe9 95bc c2a3 b33d cd82 cdbd
00000160: fdc3 e1bd 5268 1abc bdf7 803d 6ad8 9abc
00000170: d052 af3d a2e8 f43d 13b9 0fbc 84b0 b1bb
00000180: 6d04 e53d 9bea 0bbd d995 36bd 0318 d9bd
00000190: d015 94bd 6cf6 793d d211 7d3d 28ae b4bd
000001a0: 5bc5 1abd 67bf 01be 916c fcbd aeb6 fdbd
000001b0: 42c1 dcbd 778d 773d 241a b03d ad1d 58bd
000001c0: 0203 c33d aea0 b8bd 73e9 d2bc 6e69 08bd
000001d0: 6573 9f3d 7092 1cbd 602a 3ebc 6d1e 46bd
000001e0: 82ae b8ba f26a 09be 5867 2cbd f12c 04be
000001f0: 789c 26be e1f6 0ebe 7412 7ebd c2d2 03be
00000200: 8151 523d 9084 bebd 1249 663c a80f 9bbd
00000210: ffd9 2fbe c801 063d 2073 93bd 104e 95bd
00000220: 5093 b4bd 3292 eabd cb9e 39bc 478c 95bd
00000230: 5652 8c3c c4a1 20be 63e4 723d baee 0abe
00000240: dd9d 15bd 53c5 223c bb4c 4a3d 3fc4 973d
00000250: 83ed a93d 4794 dabd bd4b a83d a273 6cbc
00000260: 73e4 f33c 1fff c1bd 193f 2e3e 118f f4bc
00000270: 5788 d93d 826c 313d 140c 7e3c b73f afbd
00000280: a515 0d3e d8b0 c83d 1c79 513d 280e 0abe
00000290: aa83 d03a 1729 bcbd b73e 00be e9be 2b3d
000002a0: 41cc 20bd 6b71 46bd 3405 e8bd 3b8a 1fbe
000002b0: f8e3 a23c 6362 69bc d27c 40bd be0f 41bd
000002c0: 09a5 7cbd 1770 a03d 3f89 133e bed0 e2bd
000002d0: 0c26 343d adaf 433d 2e18 9fbc 0ffd b9bd
000002e0: b28d 4a3d f937 6f3d 354d 67bc fe55 81bd
000002f0: ebf8 7fbd 1018 a23b 6a5c 09bc 44bd 883c
00000300: bd64 0c3e 5a19 e43d 0edc b6bc f13c 37bd
00000310: 013e 15bd d0f7 09bd d235 733c aa8f c93c
00000320: 0646 c6bd 0e50 8abc 9a3d 063e 76a7 573d
00000330: 9815 0e3c 2af6 e4bc d01c 58bd 1e58 d2bd
00000340: aa75 c6b8 4e55 b63d 6e33 943d e245 9c3d
00000350: aa09 a4bd 313b b3bd 7939 9fbd 9e78 153d
00000360: 5cf7 24bd 5247 9bbd af23 643d 9502 8cbd
00000370: 2267 9bbd 9b22 b83d 1709 a3bd ad3c d7bc
00000380: 07a3 0abe eac2 ad3d c3cc ad3d d0e8 9a3d
00000390: 4bf3 a2bd 34ad 1dbe c504 0a3b c53a 4c3e
000003a0: 4bb0 e93d c81b 063e b39b 0d3c a58f 683d
000003b0: aaf8 093d 7fd2 a3bc 15ae 67bd 458c b0bd
000003c0: 3b2c f43c 4242 b0bd 25be a23d b0cb b5bc
000003d0: 5848 9dbc e41d 63bd 3aa0 46bc f1a3 113c
000003e0: fd57 d4bd 0a01 ff3c d858 1abe 5bef 49be
000003f0: 7bf2 52bd 9a55 0abd 20a3 88bc 4039 09be

bias f4 [64]
-0.101238884 0.023877723 0.13695401 -0.03655841 -0.043393686 0.052598123 -0.20025624 0.079137154
-0.020609794 -0.08924253 0.09464626 0.1465743 0.038123846 0.11689663 -0.049311318 0.038342543
-0.033236068 -0.15197776 0.073164694 0.033745117 0.06522231 0.06304143 0.10861144 0.051621523
0.026392989 -0.016161531 0.051024977 0.04338117 -0.10606593 -0.049645573 -0.114431456 -0.015831977
-0.0423724 0.17099793 0.06531546 -0.042934 0.07421806 0.176288 0.10497299 -0.0861085
0.15626432 -0.111707 0.07477887 0.1265413 0.088850915 -0.055454027 -0.04906732 0.035438895
0.12909141 0.014159166 -0.0641253 -0.038164936 0.005667796 0.042870216 0.1570984 0.0019519704
-0.10609987 -0.05301449 -0.07560677 -0.08751705 0.07588273 -0.09566701 0.09769501 -0.101047926
00000000: 5556 cfbd 379b c33c ac3d 0c3e 45be 15bd
00000010: 94bd 31bd 2171 573d f90f 4dbe a912 a23d
00000020: dfd5 a8bc cac4 b6bd e6d5 c13d 9317 163e
00000030: c027 1c3d 8067 ef3d aafa 49bd 120d 1d3d
00000040: 8b22 08bd 0fa0 1bbe 5fd7 953d 5238 0a3d
00000050: 4693 853d de1b 813d ad6f de3d 1771 533d
00000060: 1c36 d83c 3065 84bc 91ff 503d 74b0 313d
00000070: 1839 d9bd 2859 4bbd 0a5b eabd 10b2 81bc
00000080: af8e 2dbd 151a 2f3e 1dc4 853d 90db 2fbd
00000090: a3ff 973d d784 343e 14fc d63d a759 b0bd
000000a0: c103 203e a4c6 e4bd aa25 993d 0b94 013e
000000b0: 78f7 b53d c323 63bd d0fa 48bd 6028 113d
000000c0: 8a30 043e d9fb 673c 2054 83bd d652 1cbd
000000d0: ebb8 b93b ae98 2f3d 67de 203e 42d9 ff3a
000000e0: e34a d9bd b925 59bd b9d7 9abd 243c b3bd
000000f0: 6868 9b3d 11ed c3bd 5214 c83d 37f2 cebd

weight f4 [32, 64]
-0.10299542 -0.084119104 -0.023493173 -0.0031517674 -0.0418728 0.06268891 0.02255892 0.206127
0.087548114 0.08277308 0.19935636 -0.11515554 0.13838676 0.029544631 -0.09878236 0.010780265
0.0601867 -0.03974577 0.18989296 0.056848776 0.2480241 -0.012534031 -0.102866575 0.0011231825
-0.08959107 0.048395466 0.096628144 0.21633084 -0.08368178 0.0028372656 -0.10199773 0.21257499
0.09505865 0.118656814 0.22357987 -0.10637038 0.013220042 0.203378 0.20762487 -0.14387834
0.25312287 -0.018903613 0.14055198 0.21540955 -0.037534524 -0.012622085 0.029940568 -0.09423368
-0.08652327 0.01176432 0.23695625 0.143999 0.010001624 -0.060502637 0.16743563 -0.13114947
0.07597954 -0.13520378 0.12469176 -0.06491749 -0.09147119 0.003842502 0.14641878 0.17426068
-0.058475822 0.07787791 0.092764735 0.11570993 0.0007043792 0.03608812 -0.059207886 0.2031654
0.20987262 0.1779657 0.18302329 0.12073756 0.19679113 0.16177039 0.08184017 0.06968265
0.066986665 0.030490935 0.121615306 -0.032261677 0.102854975 -0.034040667 -0.044769354 0.14384198
0.16070047 0.099108964 0.1522232 0.048368827 0.07266165 0.054026816 -0.04355908 0.064791836
0.27851743 0.1539034 0.09231888 0.05883864 -0.01570484 0.10854511 0.22014529 0.049139697
0.15536828 -0.05826932 0.08895599 0.19720863 -0.029298224 0.024787063 0.14364298 0.07860243
0.11392643 -0.02034733 0.18101928 0.07731797 0.09360477 0.16061768 0.013794055 0.090821266
-0.008334205 0.11372269 0.16278045 0.044685602 0.01178485 0.09058556 0.05237208 0.12866007
0.15868825 -0.031164506 -0.0010011902 -0.008780491 0.1031583 0.014269393 0.20606264 -0.15331754
-0.0092813205 -0.021947116 -0.086151175 0.17161635 0.066993184 -0.024276601 0.03925615 0.15305291
-0.11544628 0.104461096 0.003497598 0.13759352 -0.1475825 0.08157617 0.008362597 0.10215949
0.14852813 -0.11294035 -0.06539091 -0.04496203 0.1281968 0.19149789 0.20528802 -0.07633794
0.03660751 -0.21364209 -0.04696528 0.07977097 0.0109440135 -0.048446994 -0.052786473 0.18904094
-0.15921041 0.12458968 -0.040017277 -0.090138264 0.099675335 -0.110162266 0.01751568 0.15567774
0.17316328 -0.1153998 -0.035147898 -0.022719992 0.15833186 0.00699781 -0.12442466 0.06859231
-0.10353268 0.08408453 -0.14435366 0.15992372 0.056613132 0.16884676 -0.15911633 -0.052694894
-0.010662471 0.14325857 0.13972078 0.06147877 0.032845736 0.09650132 -0.0037489992 -0.06868563
-0.030882237 -0.17250936 -0.138257 -0.010919766 0.03345364 -0.094479255 0.037187453 0.1890856
-0.07791436 0.12024743 -0.06935036 0.13205042 -0.063601114 0.14053382 0.09471492 0.013461735
0.2122452 -0.028291041 -0.12715273 -0.047282014 0.043418158 -0.020535411 0.18599537 -0.122852705
-0.023720557 -0.16908216 -0.14336964 0.07770863 -0.0020093615 0.10330257 -0.07806085 0.06818621
-0.16376789 0.0735809 -0.050099734 -0.13030444 0.12388717 -0.059797205 0.20343849 0.12804374
0.10709683 -0.056294084 -0.001466198 0.09154493 -0.035988156 0.086294234 -0.014183112 0.09545599
-0.12016787 0.10315935 -0.037927937 0.06486755 0.012644576 0.057339847 -0.055990085 0.09206318
00000000: 43ef d2bd a346 acbd c174 c0bc e28d 4ebb
00000010: d082 2bbd 0b63 803d 7ccd b83c f512 533e
00000020: 6d4c b33d ef84 a93d 1324 4c3e abd6 ebbd
00000030: 42b5 0d3e 9507 f23c 684e cabd b59f 303c
00000040: 5486 763d 76cc 22bd 4d73 423e 43da 683d
00000050: 08fa 7d3e 895b 4dbc b6ab d2bd c037 933a
00000060: 867b b7bd 533a 463d fae4 c53d d585 5d3e
00000070: 5a61 abbd 6bf1 393b 30e4 d0bd 42ad 593e
00000080: 1cae c23d 5802 f33d 1ff2 643e b7d8 d9bd
00000090: e098 583c 5342 503e 9d9b 543e d854 13be
000000a0: 5299 813e c0db 9abc dcec 0f3e 5294 5c3e
000000b0: cdbd 19bd ddcc 4ebc ec45 f53c 96fd c0bd
000000c0: 1d33 b1bd 22bf 403c a9a4 723e 7974 133e
000000d0: dadd 233c 9dd1 77bd 3f74 2b3e 0c4c 06be
000000e0: 299b 9b3d dc72 0abe 655e ff3d 76f3 84bd
000000f0: 3f55 bbbd 7cd2 7b3b ceee 153e 6471 323e
00000100: 5884 6fbd 747e 9f3d 70fb bd3d 54f9 ec3d
00000110: 17a6 383a 23d1 133d f883 72bd 970a 503e
00000120: d9e8 563e a43c 363e 756a 3b3e 4145 f73d
00000130: 9d83 493e 23a7 253e d29b a73d c7b5 8e3d
00000140: 4e30 893d 20c8 f93c 7211 f93d d224 04bd
00000150: a1a5 d23d 3a6e 0bbd 1260 37bd 504b 133e
00000160: aa8e 243e a4f9 ca3d 66e0 1b3e 641e 463d
00000170: a2cf 943d 394b 5d3d 026b 32bd 95b1 843d
00000180: d699 8e3e da98 1d3e ae11 bd3d c900 713d
00000190: 70a7 80bc e64c de3d c46d 613e b546 493d
000001a0: dd18 1f3e cfab 6ebd 8f2e b63d 0ff1 493e
000001b0: d402 f0bc 3d0e cb3c 2517 133e 50fa a03d
000001c0: 4352 e93d 72af a6bc 1e5d 393e e258 9e3d
000001d0: dcb3 bf3d f678 243e 7600 623c 8000 ba3d
000001e0: 308c 08bc 71e7 e83d ebaf 263e 4008 373d
000001f0: 3e15 413c ec84 b93d 1b84 563d 77bf 033e
00000200: 2c7f 223e b54c ffbc 5e3a 83ba 0cdc 0fbc
00000210: a944 d33d 2cca 693c 1602 533e 46ff 1cbe
00000220: ae10 18bc 70ca b3bc 0770 b0bd 32bc 2f3e
00000230: b933 893d b9df c6bc 0fcb 203d e7b9 1c3e
00000240: 196f ecbd b3ef d53d f537 653b 51e5 0c3e
00000250: de1f 17be 6811 a73d 4603 093c ff38 d13d
00000260: c217 183e 454d e7bd abeb 85bd 1b2a 38bd
00000270: 0646 033e 0618 443e 0637 523e 1157 9cbd
00000280: c2f1 153d fec4 5abe aa5e 40bd f65e a33d
00000290: 854e 333c 5b70 46bd a136 58bd f393 413e
000002a0: 0e08 23be e028 ff3d 28e9 23bd 699a b8bd
000002b0: 9522 cc3d c19c e1bd 0b7d 8f3c fc69 1f3e
000002c0: b751 313e bb56 ecbd 3ef7 0fbd 471f babc
000002d0: bf21 223e e34d e53b 5bd2 febd 207a 8c3d
000002e0: f108 d4bd 8334 ac3d 72d1 13be 0bc3 233e
000002f0: 2ce3 673d 2ae6 2c3e 64ef 22be 9ad6 57bd
00000300: a5b1 2ebc 60b2 123e f712 0f3e 2ad1 7b3d
00000310: 4089 063d 7ca2 c53d c5b1 75bb 0dab 8cbd
00000320: bffc fcbc 4ba6 30be 3e93 0dbe d1e8 32bc
00000330: af06 093d 577e c1bd df51 183d a89f 413e
00000340: 9091 9fbd 4944 f63d 9007 8ebd 3a38 073e
00000350: 4d41 82bd 19e8 0f3e e5f9 c13d 9c8e 5c3c
00000360: ce56 593e 9dc2 e7bc 5334 02be c9aa 41bd
00000370: 3dd7 313d e139 a8bc 9275 3e3e 339a fbbd
00000380: 9d51 c2bc e023 2dbe 7ecf 12be b425 9f3d
00000390: 7eaf 03bb 4c90 d33d 5ede 9fbd 36a5 8b3d
000003a0: c5b2 27be 95b1 963d 6135 4dbd 876e 05be
000003b0: 8eb8 fd3d eaed 74bd 2e52 503e e61d 033e
000003c0: 9555 db3d a094 66bd 712d c0ba e97b bb3d
000003d0: 5168 13bd 08bb b03d 4960 68bc 6e7e c33d
000003e0: 921a f6bd 3645 d33d 535a 1bbd 47d9 843d
000003f0: 322b 4f3c 30dd 6a3d dc55 65bd 9f8b bc3d

bias f4 [32]
0.15015575 0.20794412 0.12946422 -0.031166552 -0.046097446 0.0725934 0.03544629 0.13481425
-0.11527636 0.17851618 -0.02906203 -0.049864404 0.016160555 -0.0074227504 -0.04256084 0.030403778
0.15157679 0.13998502 0.08851326 -0.014340319 -0.0049461974 0.06666634 0.034248713 -0.059107654
0.18904139 0.056711316 0.14247178 0.0321784 0.14918041 0.010293688 0.118219785 0.17961057
00000000: 6ec2 193e 4eef 543e 4592 043e ff50 ffbc
00000010: add0 3cbd d9ab 943d 2130 113d bf0c 0a3e
00000020: 0316 ecbd f2cc 363e 7f13 eebc 9e3e 4cbd
00000030: 2463 843c 8b3a f3bb 4654 2ebd 5811 f93c
00000040: f236 1b3e 3c58 0f3e 7146 b53d a8f3 6abc
00000050: b613 a2bb 5d88 883d 6148 0c3d de1a 72bd
00000060: 1194 413e 204a 683d 1fe4 113e 7fcd 033d
00000070: c0c2 183e dba6 283c 371d f23d d5eb 373e

weight f4 [16, 32]
0.15259928 0.21226384 -0.043884177 -0.18777487 0.039348807 -0.18705675 0.015838379 -0.2284652
-0.05848673 -0.109251425 -0.13722585 -0.23879166 -0.15740912 -0.23235832 -0.111929104 -0.117963746
-0.031258546 0.098432414 0.28997013 -0.14799455 0.06018971 -0.11601771 0.30947804 -0.10570192
0.07939966 0.24356146 0.04692848 -0.07834055 0.20061149 0.23927173 -0.17580608 0.12350914
0.17458932 0.20531167 -0.10408335 0.11486855 -0.04708847 -0.18330868 0.06549482 -0.21761242
0.030778183 -0.18821208 -0.12278809 -0.0996806 -0.20786741 -0.11013521 0.045421507 -0.03212174
0.107959084 0.2349503 0.1743766 -0.18973841 0.1791069 -0.042661026 0.19879851 -0.18528005
0.023665609 0.15088226 0.25063378 -0.09606352 0.074281484 0.14974456 -0.14828439 0.15875688
-0.11196446 0.06968956 0.20804502 0.17459075 0.21677257 0.12865181 0.04213646 0.31501782
0.11986548 0.25232258 0.28663754 0.23774604 0.3130109 0.29704204 -0.025359161 -0.1922882
-0.04240352 0.0737276 0.06641731 0.08859117 -0.22001652 -0.08359708 -0.038385104 0.32524905
0.023165744 -0.1843413 0.067563385 0.28564373 -0.022658167 -0.16119441 0.23773956 -0.19403365
0.30891308 0.07469957 -0.08165609 -0.15306471 -0.24712956 -0.06329197 -0.052963372 -0.22442964
0.17403957 -0.051021174 -0.13839272 -0.23623617 -0.20822789 -0.15333457 0.07613095 -0.11469662
0.1386584 0.28447068 0.19769625 -0.19584832 0.19328812 -0.05579564 0.2250495 -0.0973759
0.20501468 0.14854865 0.18159355 -0.02261618 -0.074370146 0.178298 0.041305564 0.27726623
0.24992447 0.10119228 -0.026385833 -0.16336264 -0.1204144 0.047785126 0.018820599 -0.086357296
-0.06937057 -0.15366058 -0.11671038 -0.20691735 -0.11570513 -0.15997645 0.0018010327 0.06060486
-0.041506626 0.25502217 0.20393659 -0.13836166 0.34967119 -0.0851299 0.053361814 -0.06491409
0.10636867 0.14696337 0.06851772 -0.13530813 0.1877632 0.10056945 -0.17518231 0.19235806
-0.20118427 0.08946088 0.09790813 0.27541825 -0.047557965 0.17300992 0.18352833 0.18274647
-0.05470599 0.32136866 0.033703938 0.30910313 0.20058092 0.22481188 0.22912973 -0.003185261
0.06988022 -0.049735624 -0.18886213 0.13477756 0.013676046 0.06589317 -0.09700412 -0.0037565245
-0.0065692943 -0.03259561 -0.17923388 0.28526577 0.065305896 -0.023662679 0.28854173 -0.0009659451
0.0760847 0.14533529 0.008424077 0.0007824787 -0.14723139 -0.072807565 -0.11933937 -0.13255909
-0.110451646 -0.018275581 0.044824116 -0.26164114 -0.18230203 -0.16317126 -0.111578494 0.20630118
-0.062957376 0.07682898 0.022826826 -0.039001144 0.06929637 -0.084698044 0.34385368 -0.02260367
0.18420823 0.28670296 0.20365146 -0.04847417 -0.06594846 0.22547244 -0.19450948 0.18842442
-0.091947004 0.0055386564 0.06715112 0.05892142 0.08347574 0.08934193 0.13079664 0.036860805
0.14653863 0.24208674 0.02598964 0.041748002 0.1332728 0.26001292 0.30313712 -0.008103593
0.18305588 -0.064686626 -0.03574141 0.16034296 -0.1782097 0.001202383 0.031768702 0.28028914
-0.06289098 -0.05878334 -0.02403649 0.21861123 0.18431555 -0.11125756 0.33929577 -0.1410556
00000000: fc42 1c3e b15b 593e e5bf 33bd 0e48 40be
00000010: 372c 213d ce8b 3fbe 7dbf 813c c8f2 69be
00000020: c88f 6fbd 36bf dfbd ef84 0cbe cd85 74be
00000030: db2f 21be 57ef 6dbe 163b e5bd fa96 f1bd
00000040: f608 00bd ef96 c93d f776 943e e28b 17be
00000050: 7c89 763d b19a edbd e873 9e3e 407a d8bd
00000060: 4a9c a23d 2d68 793e 1438 403d 0371 a0bd
00000070: 196d 4d3e a603 753e 8206 34be 5cf2 fc3d
00000080: 8bc7 323e 393d 523e a729 d5bd 3440 eb3d
00000090: d7df 40bd 45b5 3bbe 2622 863d cad5 5ebe
000000a0: 8722 fc3c abba 40be 5278 fbbd 5825 ccbd
000000b0: 32db 54be 928e e1bd e70b 3a3d 1692 03bd
000000c0: a719 dd3d d096 703e c88f 323e c94a 42be
000000d0: cd67 373e 54bd 2ebd d691 4b3e 0eba 3dbe
000000e0: 61de c13c e180 1a3e 1253 803e f3bc c4bd
000000f0: e420 983d a356 193e ddd7 17be 2a91 223e
00000100: 9f4d e5bd 66b9 8e3d c109 553e ebc7 323e
00000110: a1f9 5d3e 4dbd 033e 4897 2c3d 044a a13e
00000120: 087c f53d 6d30 813e 28c2 923e b373 733e
00000130: f742 a03e e515 983e 04be cfbc 33e7 44be
00000140: 50af 2dbd 7ffe 963d cc05 883d 4a6f b53d
00000150: 034c 61be f234 abbd b339 1dbd 0b87 a63e
00000160: 16c6 bd3c f7c3 3cbe ac5e 8a3d e53f 923e
00000170: 9f9d b9bc 2610 25be 0072 733e c2b0 46be
00000180: db29 9e3e 17fc 983d 4f3b a7bd ffbc 1cbe
00000190: 880f 7dbe 389f 81bd 1ff0 58bd e2d0 65be
000001a0: 6e37 323e 94fb 50bd d2b6 0dbe e5e7 71be
000001b0: b139 55be bd03 1dbe 8bea 9b3d 10e6 eabd
000001c0: 78fc 0d3e 24a6 913e e370 4a3e 768c 48be
000001d0: 52ed 453e f889 64bd 6073 663e 046d c7bd
000001e0: 5eef 513e 231d 183e a9f3 393e 9145 b9bc
000001f0: 604f 98bd c093 363e 0630 293d d7f5 8d3e
00000200: 33ec 7f3e e63d cf3d 1a27 d8bc 8948 27be
00000210: d39b f6bd 56ba 433d a82d 9a3c 18dc b0bd
00000220: 2812 8ebd 3359 1dbe da05 efbd 24e2 53be
00000230: d0f6 ecbd ded0 23be a110 ec3a cd3c 783d
00000240: da02 2abd 4492 823e c1d4 503e aeae 0dbe
00000250: 1a08 b33e 9658 aebd eb91 5a3d aef1 84bd
00000260: d1d7 d93d 917d 163e 0553 8c3d 378e 0abe
00000270: ff44 403e 5bf7 cd3d fe62 33be 83f9 443e
00000280: 4003 4ebe 4437 b73d 0f84 c83d 9f03 8d3e
00000290: 24cc 42bd 8329 313e daee 3b3e e421 3b3e
000002a0: 6313 60bd 6f8a a43e 240d 0a3d c442 9e3e
000002b0: 1665 4d3e 1635 663e fca0 6a3e d0bf 50bb
000002c0: 5c1d 8f3d 95b7 4bbd 1365 41be 2103 0a3e
000002d0: 7f11 603c 00f3 863d 19aa c6bd 0630 76bb
000002e0: 3c43 d7bb f982 05bd 1689 37be 5b0e 923e
000002f0: 19bf 853d 3cd8 c1bc bebb 933e 7a37 7dba
00000300: 4cd2 9b3d c6d2 143e 2405 0a3c 421f 4d3a
00000310: d3c3 16be 221c 95bd 3368 f4bd 92bd 07be
00000320: 7934 e2bd acb6 95bc 7e99 373d d4f5 85be
00000330: 62ad 3abe 5e16 27be 4483 e4bd 9e40 533e
00000340: ccef 80bd 8358 9d3d 53ff ba3c aabf 1fbd
00000350: 41eb 8d3d 2b76 adbd 970d b03e 552b b9bc
00000360: 15a1 3c3e bbca 923e 028a 503e da8c 46bd
00000370: fc0f 87bd 3fe2 663e 7e2d 47be 55f2 403e
00000380: b64e bcbd 9e7d b53b 8786 893d 9657 713d
00000390: 54f5 aa3d e7f8 b63d 8eef 053e 5bfb 163d
000003a0: 390e 163e 96e5 773e 3ae8 d43c f4ff 2a3d
000003b0: aa78 083e 6a20 853e ca34 9b3e efc4 04bc
000003c0: 0073 3b3e 6c7a 84bd 9665 12bd f230 243e
000003d0: 9b7c 36be 4799 9d3a e61f 023d 0f82 8f3e
000003e0: fccc 80bd cdc6 70bd 2ce8 c4bc 9fdb 5f3e
000003f0: 37bd 3c3e 01db e3bd 2db8 ad3e e170 10be

bias f4 [16]
0.22854906 0.058690306 0.059998576 0.16629316 0.054963935 0.18304648 0.117795095 0.052642334
-0.039797507 0.14166015 -0.11385472 0.2025847 0.044283587 0.0030218672 0.06604009 0.27827352
00000000: c408 6a3e 3f65 703d 11c1 753d c148 2a3e
00000010: dd21 613d 8970 3b3e 8e3e f13d 7d9f 573d
00000020: b602 23bd 5c0f 113e aa2c e9bd 5d72 4f3e
00000030: b562 353d 850a 463b 0740 873d de79 8e3e

weight f4 [1, 16]
-0.35056716 -0.39574936 0.322436 -0.326302 -0.38948357 0.31250563 -0.3099592 0.42911446
-0.3415187 0.3510165 0.43321806 0.21199077 -0.28981143 0.33803815 0.24700363 -0.17544898
00000000: 8a7d b3be a99f cabe 5516 a53e 0e11 a7be
00000010: 646a c7be bd00 a03e f9b2 9ebe e4b4 db3e
00000020: 8adb aebe 6fb8 b33e c2ce dd3e 1c14 593e
00000030: 2a62 94be 5613 ad3e 85ee 7c3e e6a8 33be
